models/model.ckpt (torch, 10199 bytes, 5 tensors)

layers.0.weight f4 [16, 117]
-0.020569349 -0.08522019 -0.06860486 -0.0738407 0.013258107 -0.024863482 0.070407875 0.0556763
-0.028807715 0.0032774075 0.08252417 -0.012879768 -0.043458406 0.08930726 0.011917717 0.00040774755
-0.0619582 -0.083929636 0.03478617 0.0048594703 -0.05466714 -0.046714146 -0.0652473 0.029314335
0.011627271 0.08564919 0.08629738 -0.075098336 0.008575479 0.053190175 0.039934043 -0.06291549
0.07554358 0.008051946 0.056994785 0.056844007 -0.0522857 0.011484848 0.014035574 0.019234983
0.010489731 -0.01757954 0.111427516 -0.022651894 -0.051193763 -0.034449596 -0.07385552 0.014101146
-0.004368639 0.03699743 -0.030146023 -0.0061250166 -3.8895876e-05 -0.0013619605 0.03417331 -0.044428322
-0.025033945 0.035603944 -0.0071539246 0.017582811 0.029941242 0.0912916 -0.053969953 0.0032609727
0.034806594 -0.040463746 0.081962064 -0.05592201 -0.07308538 0.02234187 -0.026656747 0.06314815
-0.035652146 -0.07013015 -0.034853693 0.075538404 -0.050144643 0.036082253 -0.048569404 0.028412081
-0.07076154 -0.036344685 -0.03761556 0.066687085 -0.09064242 -0.090553135 0.07733949 0.08051824
0.046434674 0.027500048 0.0631052 0.065117314 0.0110715935 -0.04380073 0.024581484 0.10010024
-0.08378207 -0.08911758 0.067671135 -0.04475702 0.07163585 0.05318931 0.065671846 -0.04470464
-0.05191889 -0.012200645 0.0941779 -0.0728363 -0.027328365 0.01657272 -0.055548467 0.0921756
-0.0138893705 -0.025242504 0.016020952 0.029997263 0.0795458 0.005274668 -0.0136343455 -0.10357598
-0.033328243 -0.049025368 -0.003817337 -0.042038303 0.017818073 0.053971697 0.057917826 0.043440636
-0.0065556006 -0.06502602 0.09077103 -0.04424085 -0.02960075 0.08489708 0.05114935 0.026751202
0.010650446 -0.026244428 0.023424065 0.08022855 -0.057949703 0.001932802 0.034496564 0.06651496
0.03991059 -0.04749291 0.03861195 -0.08296796 0.07340713 -0.04911451 0.037279315 0.032650203
-0.053932592 -0.0029996624 0.012154498 -0.0189839 0.068600014 0.031001648 -0.09413037 0.04804434
-0.018610157 0.06369711 0.069515534 0.011122569 -0.009219268 0.0072668605 0.02447124 0.0422624
-0.00060698437 -0.056103427 0.22989738 0.057718236 0.08480713 -0.0599633 0.005225228 -0.013042231
0.02920804 -0.020903034 -0.05590584 0.07198933 0.057243545 0.10925777 0.017612904 0.07289851
0.03734257 0.040007997 0.32668272 -0.030517697 -0.07571616 0.01392797 0.054229453 -0.073470615
0.008358479 -0.054104466 -0.078696124 0.11004044 -0.08736423 0.068385735 -0.07269099 -0.07691429
0.03574389 0.03003552 0.57981646 0.01800685 0.082143195 -0.011153681 -0.028903028 -0.017951949
-0.047700725 0.0022188663 0.067381494 0.02539702 0.016056562 0.022562126 -0.056925647 -0.01777079
0.004953849 -0.053279765 0.7576215 0.05432428 0.049217563 0.022684062 -0.020886177 0.071575426
-0.020052522 -0.052130204 -0.092413574 -0.036726486 0.025515236 0.082710594 0.027419558 -0.094368994
-0.03597847 0.009094746 -0.0518331 -0.008488795 0.005776077 0.04911225 -0.06972631 0.035429854
0.02808212 0.014099889 -0.037323322 0.011840703 0.040919386 0.05977711 -0.07057404 -0.0699253
0.039736845 -0.054420985 -0.03815272 0.006950277 0.08610089 0.03144646 -0.0168746 -0.012084794
00000000: 0d81 a8bc ec87 aebd b480 8cbd cb39 97bd
00000010: 8838 593c 80ae cbbc 0132 903d d50c 643d
00000020: 28fe ebbc c6c9 563b 6f02 a93d aa05 53bc
00000030: 7101 32bd bae6 b63d 8742 433c f3c6 d539
00000040: e2c7 7dbd 4de3 abbd f17b 0e3d 313c 9f3b
00000050: a7ea 5fbd 5557 3fbd 60a0 85bd 9e24 f03c
00000060: 4f80 3e3c d868 af3d aebc b03d 28cd 99bd
00000070: 2a80 0c3c f1dd 593d e191 233d d6d9 80bd
00000080: 98b6 9a3d 4fec 033c 5d73 693d 43d5 683d
00000090: 8829 56bd f22a 3c3c 77f5 653c af92 9d3c
000000a0: 1fdd 2b3c f802 90bc 1c34 e43d 7790 b9bc
000000b0: 8db0 51bd 051b 0dbd 9041 97bd 7e08 673c
000000c0: cd26 8fbb 9e8a 173d cbf4 f6bc 5db4 c8bb
000000d0: 2124 23b8 d083 b2ba 50f9 0b3d 79fa 35bd
000000e0: fd13 cdbc 71d5 113d 786b eabb d409 903c
000000f0: 5647 f53c 17f7 ba3d 990f 5dbd 0bb6 553b
00000100: 5c91 0e3d 50bd 25bd badb a73d 7a0e 65bd
00000110: caad 95bd 4c06 b73c 405f dabc d153 813d
00000120: fc07 12bd 65a0 8fbd bfc2 0ebd e1b3 9a3d
00000130: 7864 4dbd fcca 133d b6f0 46bd 74c0 e83c
00000140: 6deb 90bd 2ade 14bd c612 1abd 3d93 883d
00000150: bca2 b9bd ec73 b9bd 2b64 9e3d bfe6 a43d
00000160: 4932 3e3d c847 e13c 4d3d 813d 3a5c 853d
00000170: a165 353c 6568 33bd 1c5f c93c 5b01 cd3d
00000180: ef95 abbd 4783 b6bd 2a97 8a3d 2353 37bd
00000190: d1b5 923d 09dd 593d f67e 863d 361c 37bd
000001a0: e7a8 54bd 37e5 47bc 58e0 c03d 332b 95bd
000001b0: bcdf dfbc 83c3 873c ca86 63bd 90c6 bc3d
000001c0: 3e90 63bc 5ec9 cebc 5f3e 833c d2bc f53c
000001d0: e9e8 a23d 1fd7 ac3b 9762 5fbc a51f d4bd
000001e0: 3283 08bd d3ce 48bd 4a2c 7abb 5b30 2cbd
000001f0: 35f7 913c 6d11 5d3d 3e3b 6d3d cfee 313d
00000200: 5dd0 d6bb 5d2c 85bd 29e6 b93d e535 35bd
00000210: 467d f2bc 85de ad3d fb81 513d 5625 db3c
00000220: 357f 2e3c 8efe d6bc d3e3 bf3c de4e a43d
00000230: ab5c 6dbd 1356 fd3a 454c 0d3d ff38 883d
00000240: 4979 233d ed87 42bd 9027 1e3d 1beb a9bd
00000250: 7a56 963d 4c2c 49bd 32b2 183d 38bc 053d
00000260: 6ce8 5cbd fc95 44bb a923 473c 2084 9bbc
00000270: 2a7e 8c3d 2bf7 fd3c 6cc7 c0bd 24ca 443d
00000280: 5474 98bc a173 823d 295e 8e3d 703b 363c
00000290: 6a0c 17bc d81e ee3b e977 c83c 571b 2d3d
000002a0: 081e 1fba b5cc 65bd 386a 6b3e f569 6c3d
000002b0: 5caf ad3d 149c 75bd 6438 ab3b 15af 55bc
000002c0: b345 ef3c d73c abbc 86fd 64bd 246f 933d
000002d0: 3578 6a3d 8ac2 df3d f048 903c d04b 953d
000002e0: 86f4 183d 6ddf 233d f542 a73e 4000 fabc
000002f0: 1311 9bbd 2432 643c b41f 5e3d c377 96bd
00000300: 00f2 083c a59c 5dbd 6f2b a1bd e25c e13d
00000310: 04ec b2bd d20d 8c3d 04df 94bd 3d85 9dbd
00000320: 2f68 123d 0d0d f63c da6e 143f 1a83 933c
00000330: b13a a83d eebd 36bc 0bc6 ecbc f70f 93bc
00000340: d661 43bd 666a 113b 4fff 893d 690d d03c
00000350: 0d89 833c 35d4 b83c de2a 69bd 0c94 91bc
00000360: e653 a23b e23b 5abd 7cf3 413f 2383 5e3d
00000370: 5b98 493d edd3 b93c 7d19 abbc 2396 923d
00000380: 3045 a4bc 7b86 55bd 5443 bdbd 836e 16bd
00000390: 5405 d13c 2c64 a93d fb9e e03c 8844 c1bd
000003a0: 295e 13bd 2102 153c f24e 54bd 9614 0bbc
000003b0: 3f45 bd3b ed29 493d abcc 8ebd e51e 113d
000003c0: 790c e63c 3903 673c 57e0 18bd 82ff 413c
000003d0: 169b 273d d8d8 743d 1f89 90bd ff34 8fbd
000003e0: 1ac3 223d 8ae8 5ebd 0746 1cbd 26bf e33b
000003f0: aa55 b03d 01ce 003d 9a3c 8abc 4dff 45bc

layers.0.bias f4 [16]
0.02390375 0.057707053 -0.019181406 -0.07785238 0.0774421 -0.09131339 -0.06895202 -0.046259027
-0.020179495 0.0574487 0.008784167 -0.0054276953 0.04883643 -0.05671807 0.057210326 -0.0570402
00000000: ccd1 c33c 3b5e 6c3d 5322 9dbc 1271 9fbd
00000010: f799 9e3d 8402 bbbd b736 8dbd 1b7a 3dbd
00000020: 784f a5bc 544f 6b3d 77eb 0f3c cfda b1bb
00000030: b508 483d 3551 68bd 6055 6a3d fca2 69bd

layers.2.weight f4 [8, 16]
0.23008713 0.19363506 -0.04577881 -0.17758057 -0.07067918 -0.09192828 -0.049857866 0.1750172
-0.095594615 -0.23701668 -0.11767343 0.050675333 -0.03167057 0.008258727 0.25266814 -0.07874195
-0.11957103 0.063553 0.17761219 -0.047512412 -0.055543892 -0.055762142 0.052136153 -0.012634277
0.0024140733 0.07498875 -0.13071647 -0.16215673 0.050759465 -0.074397355 -0.15817948 -0.25018683
-0.13516475 0.13830183 0.032894254 0.18984285 -0.22976717 0.1379677 0.032004807 -0.105718836
-0.10876359 0.075187065 0.04477217 -0.16478819 -0.30512953 0.10277212 0.04796616 -0.1583789
-0.08704488 0.24631017 -0.23352835 -0.16553916 -0.0874583 -0.14230731 -0.06641113 0.07668036
-0.26434153 0.21149737 -0.1045844 0.1822924 0.024426317 0.13617006 -0.036952935 0.15320216
-0.1864769 0.048972756 0.22430617 0.17755766 0.14292906 0.22019908 -0.09261666 -0.20767017
-0.02164807 -0.02121327 0.23760505 -0.23123881 0.14653887 -0.054161385 0.0017655469 -0.015618832
0.18354894 -0.21060225 -0.23657218 -0.13148595 -0.15594552 0.1706005 0.08105293 0.15595132
-0.027868157 -0.007024101 -0.007806783 0.10795754 0.22612326 -0.18373823 0.14642031 0.12791792
-0.14309634 0.20143713 -0.03204158 0.07802194 -0.16051851 0.12748602 0.23859541 0.2492133
-0.12046649 -0.044357 -0.15679747 0.20359525 -0.03743399 0.16454442 0.25267878 -0.07308923
0.032398462 0.13368896 0.049586892 0.21895178 0.12625444 0.011631889 -0.2035527 -0.015246399
0.039776042 0.078826174 -0.03830451 0.07682589 -0.013636588 0.18142451 0.158772 -0.28673893
00000000: f69b 6b3e 4548 463e 9082 3bbd aed7 35be
00000010: 3fc0 90bd e544 bcbd c337 4cbd b537 333e
00000020: 1cc7 c3bd 80b4 72be c4fe f0bd f090 4f3d
00000030: 00b9 01bd 9d4f 073c b85d 813e 7643 a1bd
00000040: a8e1 f4bd 1328 823d f8df 353e 609c 42bd
00000050: fe81 63bd d866 64bd b88c 553d 0000 4fbc
00000060: 6e35 1e3b b493 993d 8ada 05be 6a0c 26be
00000070: 28e9 4f3d a45d 98bd cdf9 21be 7d18 80be
00000080: a168 0abe ff9e 0d3e 20bc 063d 2a66 423e
00000090: 1648 6bbe 6847 0d3e 7917 033d 1e83 d8bd
000000a0: 72bf debd adfb 993d 0663 373d 3cbe 28be
000000b0: f039 9cbe 307a d23d 2a78 443d 142e 22be
000000c0: 9644 b2bd bc38 7c3e 0e22 6fbe 1983 29be
000000d0: 561d b3bd 02b9 11be 8f02 88bd 980a 9d3d
000000e0: c657 87be c492 583e 5930 d6bd dcaa 3a3e
000000f0: b319 c83c 2a70 0b3e f65b 17bd 07e1 1c3e
00000100: cdf3 3ebe a897 483d 84b0 653e add1 353e
00000110: ff5b 123e de7b 613e cead bdbd 7da7 54be
00000120: 4b57 b1bc 74c7 adbc bd4e 733e dec9 6cbe
00000130: 490e 163e 54d8 5dbd ec69 e73a 21e6 7fbc
00000140: 41f4 3b3e 1ea8 57be fa3f 72be 41a4 06be
00000150: 2fb0 1fbe e6b1 2e3e 14ff a53d b4b1 1f3e
00000160: c34b e4bc 6e2a e6bb 0bd0 ffbb d818 dd3d
00000170: db8c 673e e025 3cbe 35ef 153e eafc 023e
00000180: d987 12be 8945 4e3e 083e 03bd f8c9 9f3d
00000190: f75e 24be b28b 023e 5b52 743e c531 7f3e
000001a0: 23b7 f6bd b0af 35bd 848f 20be 467b 503e
000001b0: 6254 19bd 557e 283e 1d5f 813e ceaf 95bd
000001c0: 40b4 043d c2e5 083e a01b 4b3d e534 603e
000001d0: d848 013e ae93 3e3c 1e70 50be 08cc 79bc
000001e0: 34ec 223d 9e6f a13d 31e5 1cbd e456 9d3d
000001f0: ff6b 5fbc 59c7 393e 2195 223e 72cf 92be

layers.2.bias f4 [8]
-0.14467657 0.059226595 0.18436095 0.0932668 0.025219694 0.05507864 -0.08477847 -0.052954298
00000000: 1826 14be 9697 723d 1ec9 3c3e aa02 bf3d
00000010: 8899 ce3c 249a 613d 56a0 adbd 9be6 58bd

layers.4.weight f4 [1, 8]
0.274047 0.27954695 0.10107049 0.11859052 -0.17719147 0.06671865 0.23544791 0.31951484
00000000: e34f 8c3e c720 8f3e 0cfe ce3d 96df f23d
00000010: ae71 35be caa3 883d 4219 713e 7397 a33e
